model/model.pth (torch, 63191 bytes, 4 tensors)

linear1.weight f4 [1024, 11]
0	0x3e85e458	0.26150775
1	0xbdca2e93	-0.098721646
2	0xbe1a21df	-0.15051983
3	0x3e2cf133	0.16888885
4	0x3decdc1d	0.11565421
5	0x3e953da3	0.29148588
6	0xbec31e89	-0.38109234
7	0x3e82e154	0.25562537
8	0xbd6ae7cf	-0.057349976
9	0xbe9a26a8	-0.30107617
10	0x3e086b26	0.13322124
11	0x3e6c9878	0.23105037
12	0x3e51ef50	0.20501447
13	0xbe67da84	-0.22641951
14	0x3d49f470	0.04930538
15	0xbd193225	-0.037401337
16	0x3e1f3b37	0.15549932
17	0x3e267721	0.16256382
18	0x3e2ce579	0.16884412
19	0x3eb7b942	0.35883528
20	0x3d47cf15	0.048781473
21	0xbe02a31e	-0.12757537
22	0x3db224ef	0.08698451
23	0x3e09c9a0	0.1345582
24	0x3d1d0ba1	0.03834117
25	0xbe36daec	-0.1785695
26	0x3e46f784	0.19430357
27	0xbdb58801	-0.08863831
28	0xbe324618	-0.17409551
29	0x3dde5bcd	0.10857353
30	0x3e3999f5	0.18125136
31	0x3e8e80ed	0.27832738
32	0x3ed3b95e	0.4135236
33	0xbe5ecdf1	-0.21758248
34	0x3daf1ef6	0.08550827
35	0x3e3a242a	0.18177858
36	0xbd981636	-0.074261114
37	0xbe483d0d	-0.19554539
38	0x3e82336e	0.25429863
39	0xbe91f958	-0.28510547
40	0x3e74a2e3	0.23890261
41	0x3e32c231	0.1745689
42	0xbd497e1a	-0.049192525
43	0xbe21b21b	-0.15790598
44	0xbe64309f	-0.22284172
45	0x3e13ff8b	0.1445295
46	0xbe1b4047	-0.15161239
47	0xbe81a3cc	-0.2532028
48	0x3dea495a	0.11439772
49	0xbe3b4348	-0.18287385
50	0xbd4ad153	-0.049516033
51	0xbd8adcce	-0.067803964
52	0x3ecd3cba	0.40085393
53	0x3ea9cfb3	0.33166274
54	0x3e8ecf29	0.27892426
55	0x3cf719b5	0.030163625
56	0x3cfc1991	0.03077391
57	0x3e378418	0.17921484
58	0xbe03874e	-0.12844583
59	0x3ebd2846	0.3694479
60	0x3dfe7514	0.12424675
61	0x3e8f949c	0.28043067
62	0xbe443ce5	-0.19163854
63	0x3e4ca79f	0.19985817
64	0xbe196049	-0.14978136
65	0x3e3061c6	0.17224798
66	0xbe19d23a	-0.15021601
67	0x3e6ab866	0.22921905
68	0xbdf6a61b	-0.12043401
69	0x3d4c26d1	0.049841706
70	0x3d59ebac	0.05320327
71	0xbe82bd20	-0.25534916
72	0x3cc8df07	0.02452041
73	0x3ca13d94	0.019682683
74	0xbdb4ff01	-0.08837701
75	0xbdb5e837	-0.08882182
76	0x3e104115	0.14087327
77	0x3e7a7782	0.24459651
78	0x3dc572f4	0.09641066
79	0x3dad2322	0.08453967
80	0xbd85e69c	-0.06538126
81	0xbe7c41f5	-0.24634536
82	0x3e89e229	0.2693036
83	0xbd47e26c	-0.048799917
84	0x3e27f835	0.16403277
85	0xbebbff62	-0.3671828
86	0x3e3ce6ac	0.1844737
87	0x3e805356	0.2506358
88	0xbe115937	-0.14194189
89	0x3dd64baf	0.10463654
90	0xbe872e52	-0.26402527
91	0xbe99b6b0	-0.30022192
92	0x3d770add	0.060313094
93	0xbd7f7994	-0.062371805
94	0xbe25586a	-0.16147009
95	0xbe368eda	-0.17827931
96	0x3e15ebf3	0.14640789
97	0xbe1ab525	-0.15108164
98	0xbddf8004	-0.10913089
99	0xbdf774fa	-0.120828584
100	0x3d9c9945	0.07646421
101	0x3e2693eb	0.16267364
102	0x3e84e9cf	0.25959632
103	0x3cd049c0	0.025425792
104	0x3e98475c	0.29741943
105	0xbe7184e3	-0.23585849
106	0x3e1551d7	0.14582
107	0xbe9085cb	-0.28227076
108	0x3e0a0eeb	0.13482253
109	0xbe1894d1	-0.14900519
110	0x3db24379	0.08704276
111	0x3e26e967	0.16299973
112	0x3e7f537b	0.24934189
113	0xbdc29d41	-0.0950265
114	0x3cc779e0	0.024350107
115	0x3e180a06	0.14847574
116	0x3e638bcf	0.22221301
117	0x3a9dbdcf	0.0012034717
118	0xbdf01ed0	-0.11724627
119	0x3e675cbf	0.22593974
120	0x3ea93e34	0.3305527
121	0xbe0962ef	-0.13416646
122	0xbd280b13	-0.041026186
123	0xbdd2ef86	-0.10299592
124	0xbb018636	-0.0019763834
125	0x3e176572	0.14784792
126	0xbe7ce46a	-0.24696508
127	0x3d8d3125	0.06894139
128	0x3dba148c	0.0908595
129	0x3ec2d06a	0.38049632
130	0x3e7e18c9	0.24814142
131	0x3ea41e0e	0.3205418
132	0xbdb4ada6	-0.08822183
133	0x3b460a1e	0.0030218433
134	0x3e64dd45	0.22350033
135	0x3e793a59	0.24338664
136	0x3d562f1a	0.052291013
137	0x3e3fb774	0.18722326
138	0x3e8dd422	0.27700907
139	0x3e57a966	0.21060714
140	0x3e1298ae	0.14316055
141	0xbc93cded	-0.018042529
142	0xbe064ed5	-0.1311601
143	0x3e8ac758	0.27105212
144	0x3e59e0a6	0.21277103
145	0xbe60eb48	-0.21964753
146	0x3d91a0b5	0.071107306
147	0x3e54e656	0.20790991
148	0x3d8d57b5	0.069014944
149	0x3e52503b	0.20538418
150	0x3e5d70ae	0.21625015
151	0x3dd03c2c	0.10167727
152	0xbe265d83	-0.1624661
153	0xbe2afa7d	-0.16697116
154	0xbe2f5752	-0.17123154
155	0xbe87c006	-0.2651369
156	0xbde543cb	-0.11194571
157	0xbd0ec836	-0.034858905
158	0xbe65edb5	-0.2245396
159	0x3dca16ef	0.098676555
160	0x3ea584f5	0.32328
161	0xbea2ea3f	-0.3181934
162	0x3e0b93f5	0.1363066
163	0xbd899c6b	-0.067192875
164	0x3e8c179e	0.27361768
165	0xbe3aeef2	-0.18255213
166	0x3e2210f1	0.15826775
167	0x3c88bfa9	0.016692953
168	0xbe671326	-0.22565898
169	0xbc3e293a	-0.011606509
170	0xbe80c097	-0.25146934
171	0x3e7accdb	0.24492209
172	0x3e893ff2	0.268066
173	0xbe94c2f2	-0.2905498
174	0xbe4a2b48	-0.19743073
175	0xbe312a1c	-0.1730122
176	0xbea667e8	-0.3250115
177	0xbe7555c6	-0.23958501
178	0xbea2394b	-0.31684336
179	0x3dc25314	0.09488502
180	0x3e2d916a	0.16950002
181	0xbd358bd0	-0.04432279
182	0x3d9e396f	0.07725798
183	0xbd240057	-0.040039387
184	0x3e82f510	0.25577593
185	0xbe2d19a0	-0.16904306
186	0xbe3ffa8b	-0.18747918
187	0x3e1d8583	0.15382962
188	0xbc9a7a7c	-0.018857233
189	0x3d75a449	0.059971128
190	0xbe8e3e8f	-0.27782103
191	0xbe870d1c	-0.2637719
192	0xbdd3edb6	-0.10348074
193	0xbdf717af	-0.12065064
194	0xbe0c245a	-0.13685742
195	0x3e50d5fa	0.20394126
196	0x3da21e75	0.079159655
197	0x3dc951fa	0.09830089
198	0x3e2fbe93	0.17162542
199	0xbe5cf5dd	-0.21578164
200	0xbd277445	-0.040882368
201	0x3ebad691	0.36491826
202	0xbeb4d229	-0.3531659
203	0x3dbab58b	0.09116658
204	0x3e5825ff	0.21108244
205	0xbe995e95	-0.29954973
206	0xbe857565	-0.26066127
207	0x3e1aa4d8	0.15101945
208	0xbe06d5ee	-0.13167545
209	0x3cce5881	0.025188686
210	0xbf0c1031	-0.54712206
211	0xbedbf81c	-0.4296273
212	0xbceee3e3	-0.0291614
213	0xbda64351	-0.08118308
214	0x3e0e8aa1	0.1392007
215	0x3e0d11bb	0.13776295
216	0xbe9e940a	-0.3097232
217	0x3e448b75	0.19193824
218	0xbdda3b4d	-0.10655842
219	0x3e0af268	0.13569033
220	0xbe6f2d12	-0.23357037
221	0xbd64ca35	-0.055856902
222	0xbe230f4d	-0.15923806
223	0x3d762586	0.06009438
224	0xbda4e481	-0.08051396
225	0xbea55557	-0.32291672
226	0x3d82c068	0.06384355
227	0x3e975da3	0.29563627
228	0xbccb8af5	-0.024846533
229	0xbe254697	-0.16140209
230	0xbe66b98d	-0.2253172
231	0xbe3d070a	-0.18459716
232	0xbd0ba8be	-0.034096472
233	0x3e815468	0.2525971
234	0xbd0d5472	-0.03450436
235	0xbde26a46	-0.11055426
236	0x3e44e81d	0.19229169
237	0xbcb92cbf	-0.022604344
238	0x3d9ac791	0.075575955
239	0x3e8731b4	0.26405108
240	0x3e27fdfd	0.16405483
241	0x3e2ecedb	0.17071097
242	0xbee169ae	-0.4402594
243	0xbe7edf43	-0.24889855
244	0x3dc89b8b	0.097952925
245	0x3d84004a	0.06445368
246	0x3cadffb9	0.021240102
247	0xbe67d309	-0.22639097
248	0x3e3b942d	0.18318243
249	0x3d12449a	0.035709955
250	0x3e0a5413	0.13508634
251	0xbdc691fe	-0.096958145
252	0xbe273910	-0.16330361
253	0x3e673591	0.22579028
254	0x3dbd68ea	0.092485264
255	0x3e852308	0.2600329

linear1.bias f4 [1024]
0	0xbd04e422	-0.032444127
1	0xbe7cae84	-0.24675947
2	0xbd8ab9c1	-0.06773711
3	0xbe36ab79	-0.17838849
4	0xbc866bb3	-0.016408777
5	0xbe7ea30c	-0.24866885
6	0xbd5bf9cd	-0.053705025
7	0x3e622541	0.22084524
8	0xbe65c2a5	-0.22437532
9	0xbe2c283a	-0.1681222
10	0x3e92f0f0	0.28699446
11	0x3ea49eb4	0.3215233
12	0xbd413a60	-0.04717481
13	0xbe5fb455	-0.21846135
14	0xbe8cb441	-0.27481273
15	0xbc7b00d3	-0.015320021
16	0xbcbfa6e8	-0.023395017
17	0xbe0b0080	-0.1357441
18	0x3e481cb5	0.19542201
19	0x3df5a99f	0.11995243
20	0x3e3890c2	0.1802397
21	0xbe094110	-0.13403726
22	0x3d2fb2c2	0.042895086
23	0xbd204e5b	-0.039137226
24	0x3dedd0c6	0.11612086
25	0xbe7df17e	-0.24799153
26	0xbcda83c3	-0.026674157
27	0xbe851ec7	-0.26000044
28	0xbe41cae7	-0.18925057
29	0x3e327d4f	0.17430614
30	0xbe2c6bd1	-0.16838004
31	0xbd208282	-0.039186962
32	0xbe3bd85b	-0.18344252
33	0x3cf50e50	0.029914051
34	0x3e085d33	0.13316803
35	0xbc86c07b	-0.016449204
36	0xbd3a5995	-0.04549559
37	0xbe2129ea	-0.15738645
38	0x3e45fe7a	0.19335356
39	0x3e915639	0.28386095
40	0x3d4ce4f6	0.05002304
41	0xbe309221	-0.17243244
42	0xbd15eb87	-0.03660157
43	0xbdf509bf	-0.119647495
44	0xbd0e1bd4	-0.034694508
45	0xbe4aa59e	-0.1978974
46	0x3e80740f	0.25088546
47	0xbd2c8daa	-0.04212729
48	0xbe255653	-0.16146211
49	0xbe8ca4c7	-0.27469465
50	0xbe149976	-0.14511666
51	0xbcb64e68	-0.022254184
52	0x3d8241d1	0.0636021
53	0xbe32ad46	-0.17448911
54	0xbcb4107a	-0.021980513
55	0xbe45fe0c	-0.19335192
56	0x3d3bfd03	0.045895588
57	0x3cdb73e5	0.026788661
58	0x3d2da77d	0.042396057
59	0x3e1d653d	0.1537065
60	0xbdbfb79f	-0.09361195
61	0x3e281965	0.16415937
62	0x3e1229ff	0.14273833
63	0xbd20d0f1	-0.039261762
64	0x3df7ee96	0.121060535
65	0xbd6c0fcd	-0.057632256
66	0x3e48b7bd	0.1960134
67	0x3d93ba74	0.072132975
68	0x3d675782	0.05647994
69	0xbda1e0ec	-0.079042286
70	0x3e0c48da	0.13699666
71	0x3e2c67a9	0.16836418
72	0xbda985b6	-0.082774565
73	0x3e80d6a3	0.25163755
74	0xbdb4c66b	-0.08826908
75	0x3e021e96	0.1270698
76	0xb9b93115	-0.0003532252
77	0xbe99fc5d	-0.3007535
78	0xbdff2568	-0.124583066
79	0xbdacd0da	-0.08438273
80	0xbc48a3f3	-0.01224612
81	0x3dcf5275	0.10123149
82	0x3e8452cb	0.25844416
83	0x3e00531e	0.12531707
84	0xbe0603d7	-0.13087402
85	0x3dbb9a44	0.09160283
86	0x3e44db01	0.19224168
87	0x3e71c248	0.23609269
88	0xbe480f79	-0.19537152
89	0xbe00aab5	-0.1256512
90	0x3dd611f3	0.10452642
91	0xbe8f5b3c	-0.27999294
92	0x3e6e7df7	0.2329024
93	0xbd1b1a5e	-0.037866943
94	0x3e21a76b	0.15786521
95	0x3e26793d	0.16257186
96	0xbd35a253	-0.044344258
97	0xbe91df75	-0.28490797
98	0xbe5a5390	-0.21320939
99	0xbd414be2	-0.047191508
100	0xbda2b189	-0.079440184
101	0x3d8cfc2e	0.06884037
102	0x3e7dcbc2	0.24784759
103	0x3d995e1f	0.07488655
104	0xbe6e12cc	-0.23249358
105	0x3e850de9	0.25987175
106	0x3ea2dcbe	0.31809038
107	0x3d2fb190	0.042893946
108	0xbca13596	-0.019678872
109	0xbca163f3	-0.01970098
110	0x3dae54ad	0.085122444
111	0xbe714630	-0.2356193
112	0xbdcce453	-0.10004487
113	0x3b506924	0.003180095
114	0x3e93a36c	0.28835618
115	0xbe635ac2	-0.2220259
116	0xbd1793d3	-0.03700621
117	0x3d52ab73	0.051433038
118	0xbe5d60bb	-0.21618931
119	0x3c1923da	0.009346927
120	0xbe63a95f	-0.22232579
121	0xbd8121e6	-0.06305294
122	0xbdaf00e4	-0.08545092
123	0x3d56d8ce	0.052452855
124	0x3e3766ca	0.17910305
125	0xbe455490	-0.1927054
126	0xbd5cab81	-0.053874496
127	0x3d1eceeb	0.03877155
128	0x3e4ae1af	0.19812654
129	0xbe969091	-0.2940717
130	0x3e451e41	0.19249822
131	0x3e02edb1	0.12785985
132	0x3e03e015	0.1287845
133	0x3e8738fe	0.2641067
134	0xbdebac6b	-0.115074955
135	0xbe155c76	-0.14586052
136	0x3e8d2ca0	0.2757311
137	0xbe69ac62	-0.22819665
138	0x3cdb858d	0.02679708
139	0xbe58fc90	-0.21190095
140	0xbe8212a6	-0.25404853
141	0xbe06cca9	-0.13164009
142	0xbe08d93a	-0.13364115
143	0x3e4a1b7f	0.19737051
144	0xbe311882	-0.17294505
145	0x3e861d21	0.261941
146	0xbd7cae93	-0.061689924
147	0xbd05c5c7	-0.03265932
148	0x3d4e9acc	0.050440595
149	0x3e724249	0.23658098
150	0x3cb3cd13	0.021948373
151	0xbcac9b7b	-0.021070233
152	0x3c5d92be	0.013523756
153	0x3e81d80a	0.25360137
154	0xbdb6b264	-0.08920744
155	0xbe2f4abc	-0.17118353
156	0xbe8de1be	-0.2771129
157	0xbe15ed49	-0.14641298
158	0xbe805052	-0.2506128
159	0x3d7b65f4	0.061376527
160	0x3e9b24c5	0.3030149
161	0xbe5e47f8	-0.21707141
162	0xbe8d0d4a	-0.275492
163	0x3e4061fd	0.1878738
164	0x3e660a9c	0.22464985
165	0xbde27460	-0.11057353
166	0xbe331549	-0.17488588
167	0xbe928799	-0.28619078
168	0x3e5f7c90	0.2182486
169	0x3dd626d4	0.104566246
170	0xbddb71b9	-0.1071505
171	0x3e87a900	0.26496124
172	0x3daad7b3	0.083419226
173	0xbe3387a6	-0.17532215
174	0xbdf339d3	-0.118762635
175	0xbe8b4ee9	-0.2720864
176	0xbe79bf0f	-0.2438929
177	0x3c033451	0.008008079
178	0x3e88d567	0.26725313
179	0x3eb8397e	0.35981363
180	0x3e60b567	0.219442
181	0x3dfb3015	0.1226503
182	0xbd8b170d	-0.06791506
183	0xbddbb206	-0.10727315
184	0x3e2a39c9	0.16623606
185	0xbdfe45c7	-0.12415653
186	0xbe368765	-0.17825086
187	0x3e97256a	0.29520732
188	0xbd93aebf	-0.072110645
189	0xbd10c372	-0.03534264
190	0x3c5f5f06	0.013633495
191	0xbe0409ff	-0.12894438
192	0x3ddb179e	0.10697864
193	0x3cb2c3bf	0.021821855
194	0xbe04924f	-0.12946437
195	0x3e326938	0.1742295
196	0x3e375c1b	0.17906229
197	0x3e04feec	0.1298787
198	0xbe170bf3	-0.14750652
199	0xbde892a7	-0.11356097
200	0xbe4fde56	-0.20299658
201	0xbe0cd9bc	-0.13754934
202	0xbbce920d	-0.0063040317
203	0x3e498894	0.19681007
204	0x3e81083f	0.25201604
205	0xbe47a7ae	-0.19497558
206	0x3e20dcf9	0.15709294
207	0x3d8acdcc	0.06777534
208	0x3e1b6470	0.15175033
209	0xbe5a130b	-0.21296327
210	0xbdc06183	-0.09393599
211	0xbe05dd42	-0.13072684
212	0x3e775e47	0.24157058
213	0x3db6770b	0.089094244
214	0x3ea1960c	0.3155979
215	0xbd53232a	-0.051547207
216	0x3d4986ad	0.049200702
217	0xbdacd954	-0.084398896
218	0x3d261f3f	0.040557142
219	0xbdaaf025	-0.08346585
220	0x3c3a0240	0.0113530755
221	0x3debbce7	0.1151064
222	0x3e40d1ed	0.1883008
223	0xbe088054	-0.13330203
224	0xbc2489b4	-0.010042597
225	0xbe13e483	-0.14442639
226	0x3dbf2b27	0.093344025
227	0x3e77522c	0.2415244
228	0x3d0ea324	0.03482355
229	0xbd83b1e0	-0.06430411
230	0x3dc50118	0.09619349
231	0xbe2b337c	-0.16718858
232	0x3e20c6c0	0.15700817
233	0xbe563ad1	-0.20920874
234	0xbdf2f658	-0.118633926
235	0x3e3de69c	0.18545002
236	0x3e68ab3b	0.22721569
237	0xbe1007b9	-0.14065446
238	0x3e7a5153	0.24445085
239	0x3e042d29	0.12907852
240	0xbe66e009	-0.225464
241	0xbe71ac7d	-0.23600955
242	0x3b7ab792	0.003825639
243	0x3e6ed75f	0.23324345
244	0x3e91d177	0.28480121
245	0x3d8a097b	0.067400895
246	0x3e6a6e6f	0.2289369
247	0x3b6c2c89	0.0036037287
248	0x3dcd34bb	0.10019823
249	0x3e91cf79	0.28478602
250	0xbdb8a468	-0.09015733
251	0xbe8ba3ea	-0.27273494
252	0x3e85b41b	0.26113972
253	0x3de18f44	0.11013654
254	0xbe81b5e3	-0.2533408
255	0xbcbba84c	-0.022907399

linear2.weight f4 [3, 1024]
0	0xbd2fb157	-0.042893734
1	0xbe011d64	-0.12608868
2	0xbd7bfd7a	-0.06152103
3	0xbe3f06db	-0.18654959
4	0xbdfe31fd	-0.12411878
5	0x3d906623	0.07050731
6	0xbd718371	-0.058963243
7	0x3d3e3736	0.046439372
8	0xbc4b8291	-0.012421266
9	0x3ca9c675	0.020724514
10	0x3a344b68	0.00068776915
11	0xbd4d5131	-0.05012626
12	0xbcc0c684	-0.02353216
13	0xbcd51123	-0.026009148
14	0x3cd5b7de	0.026088651
15	0xbe86fdc8	-0.26365495
16	0x3d4f361d	0.050588716
17	0xbd151c34	-0.03640385
18	0x3d83e597	0.06440275
19	0x3ccba48c	0.024858736
20	0x3dc7d351	0.09757102
21	0xbd9002ee	-0.07031809
22	0x3dbc122c	0.091831535
23	0xbcb34fa3	-0.02188856
24	0xbc0b4036	-0.008499196
25	0xbdc350b7	-0.095368795
26	0xbd4ed55e	-0.05049645
27	0xbd57d03f	-0.052688833
28	0xbd9c4124	-0.07629612
29	0xbbd271f2	-0.0064222747
30	0x3d4e7317	0.050402727
31	0xbd9a029e	-0.075200304
32	0xbd151854	-0.036400154
33	0x3c8825bc	0.016619556
34	0x3d10c251	0.035341565
35	0xbd1c2b8f	-0.03812748
36	0x3d6a9886	0.057274364
37	0xbd97b561	-0.07407642
38	0x3dba8c46	0.09108786
39	0xbc09b808	-0.008405693
40	0xbe17f406	-0.14839181
41	0xbb328d6c	-0.0027244939
42	0x3dbd4a60	0.092427015
43	0xbdfb1fdd	-0.12261937
44	0xbdb69869	-0.08915789
45	0x3e13a280	0.14417458
46	0x3df995d3	0.1218678
47	0xbe8c8461	-0.27444747
48	0xbb05388e	-0.0020327899
49	0x3d381c0c	0.044948623
50	0x3d8721cd	0.06598244
51	0xbdb49b74	-0.08818713
52	0xbc41b601	-0.011823178
53	0xbe541d8e	-0.20714399
54	0xbe07803d	-0.13232513
55	0x3d8452a4	0.06461075
56	0x395209b9	0.00020030783
57	0xbdaf0018	-0.0854494
58	0x3d77190e	0.06032663
59	0xbd3b966b	-0.045797747
60	0x3d5625a1	0.05228198
61	0xbd184738	-0.037177294
62	0xbda65445	-0.08121542
63	0x3de44240	0.11145449
64	0xbd0204a9	-0.031742726
65	0xbdf31db6	-0.11870901
66	0xbd6d5f44	-0.05795218
67	0xbc9e8d13	-0.019354379
68	0xbbf3768e	-0.0074299043
69	0x3b9f00be	0.0048523834
70	0x3dfa221f	0.12213539
71	0xbd6a11c8	-0.057145864
72	0xbe14ec67	-0.14543305
73	0xbd2e887f	-0.04261064
74	0x3ce34f90	0.0277479
75	0xbd70688a	-0.058693446
76	0xbd620598	-0.055181116
77	0x393ced00	0.00018017367
78	0xbdaf65ac	-0.08564314
79	0xbdcf77ae	-0.10130249
80	0xbd40324f	-0.046922978
81	0x3a18be86	0.000582673
82	0x3ba66eb3	0.0050791143
83	0xbd6f9522	-0.058491834
84	0x3d3027db	0.04300676
85	0x3dda26c4	0.10651925
86	0x3d406788	0.046973735
87	0x3c940cbe	0.018072482
88	0xbe4041e0	-0.1877513
89	0xbdffac63	-0.12484052
90	0x3dd1e817	0.10249346
91	0xbcc55b5a	-0.024091411
92	0xbd05341f	-0.03252041
93	0xbd97bade	-0.07408689
94	0x3cc55dee	0.02409264
95	0xbdd2640f	-0.10272991
96	0xbdb5816a	-0.088625744
97	0xbb12fd59	-0.002242884
98	0x3e14739c	0.14497226
99	0xbd4d1893	-0.050072264
100	0xbb82a33d	-0.0039867447
101	0xbcdea739	-0.027179347
102	0xbd8514fa	-0.064981416
103	0xbd951469	-0.072792836
104	0x3d7552e8	0.05989352
105	0x3da2b841	0.079453
106	0xbc9a6ea1	-0.01885158
107	0xbd3c3c87	-0.04595616
108	0xbcf779c3	-0.030209428
109	0xbc6a3c4e	-0.014296604
110	0xbd15a60d	-0.03653531
111	0x3df786e3	0.120862745
112	0xbce93b8b	-0.028470775
113	0x3da03146	0.07821898
114	0xbd2fc093	-0.042908262
115	0x3bfd1237	0.0077231186
116	0xbd0e6d73	-0.034772348
117	0x3ce07a82	0.027402166
118	0xb994662c	-0.00028304884
119	0x3d202095	0.039093573
120	0xbdafff7a	-0.0859365
121	0x3db0bf7b	0.08630272
122	0x3d1c0690	0.038092196
123	0x3e0dd5b9	0.1385106
124	0xbdbe92cd	-0.09305344
125	0x3dfad9d5	0.122485794
126	0x3d617fe2	0.0550536
127	0x3d3e2160	0.046418548
128	0x3d0e43dd	0.03473269
129	0xbc8e16c5	-0.017344842
130	0xbd52622f	-0.051363166
131	0xbd94c16b	-0.07263454
132	0x3ca4ff08	0.02014114
133	0xbc65f14a	-0.014034579
134	0x3d863b82	0.06554319
135	0xbdd44ead	-0.10366569
136	0xbcb6c8c0	-0.022312522
137	0xbdaab85e	-0.083359465
138	0x3dba82a6	0.091069505
139	0x3ca28fee	0.019844022
140	0x3d800994	0.06251827
141	0xbdd1ee62	-0.10250546
142	0xbcb0735d	-0.021539384
143	0x3db58e8c	0.08865079
144	0xbe225e30	-0.15856242
145	0x3c2bf568	0.010495521
146	0x3c28d1fd	0.010303971
147	0xbd9783be	-0.07398175
148	0xbd999ab6	-0.07500212
149	0xbd798f48	-0.06092766
150	0x3d5b451c	0.053532705
151	0xbcdc2264	-0.026871867
152	0xbc898106	-0.016785156
153	0x3c869cb6	0.016432147
154	0xbed61e4e	-0.41819996
155	0xbda753f0	-0.08170307
156	0x3cba3d68	0.022734359
157	0xbded4aea	-0.11586554
158	0xbd9f312c	-0.07773051
159	0x3d96ad7a	0.07357307
160	0x3ca8facd	0.020627404
161	0xbd247995	-0.040155012
162	0xbe017f20	-0.1264615
163	0xbd320acc	-0.043467328
164	0xbccfddd7	-0.025374336
165	0xbcf4810e	-0.029846694
166	0xbdc08f24	-0.09402302
167	0x3c55f8b0	0.01305978
168	0xbd95fc5c	-0.07323524
169	0xbd756b48	-0.059916764
170	0xbce06151	-0.027390154
171	0x3d9136ea	0.07090552
172	0xbd8501a9	-0.06494457
173	0xbd360e46	-0.044447206
174	0xbe0c7d84	-0.13719755
175	0xbcbf6d80	-0.023367643
176	0x3a90eb98	0.001105654
177	0xbd629e26	-0.055326603
178	0xbc4fb024	-0.012676273
179	0x3dfb6de1	0.12276817
180	0x3db24f9c	0.087065905
181	0x39cf6645	0.00039558313
182	0xbdadfa13	-0.084949635
183	0xbd8468a4	-0.06465271
184	0xbd46342c	-0.0483896
185	0xbc94a35f	-0.018144308
186	0xbdae75ec	-0.085185856
187	0xbce2b0be	-0.027672168
188	0xbba8b5b3	-0.0051486134
189	0xbd1f865c	-0.038946494
190	0xbc15766d	-0.009122473
191	0xbe16f58b	-0.14742105
192	0xbd93d7ec	-0.07218918
193	0x3e38e40f	0.18055747
194	0x3dc49500	0.09598732
195	0xbd8de593	-0.069285534
196	0x3d4d4c0f	0.050121363
197	0xbc09b9f5	-0.008406152
198	0xbafb5949	-0.0019176389
199	0x3d03c4a1	0.03216994
200	0x3ab6a8e3	0.001393583
201	0xbe48b3f1	-0.19599892
202	0xbde6e1c4	-0.1127353
203	0xbbd16de9	-0.006391276
204	0x3bdf51aa	0.006815155
205	0xbd8e6190	-0.06952202
206	0xbd597a15	-0.053094942
207	0xbe0ee190	-0.13953233
208	0xbce0dd41	-0.027449252
209	0xbd2aeaad	-0.04172771
210	0xbc803f09	-0.015655058
211	0x3d45ce6a	0.048292555
212	0xbd43a423	-0.047763955
213	0x3dc174d5	0.09446112
214	0x3d861d90	0.06548607
215	0x3d49507e	0.04914903
216	0x3c22bbee	0.009932501
217	0xbda529c4	-0.08064607
218	0x3ca242b4	0.019807197
219	0x3b9a88e3	0.004716025
220	0xbd9baf36	-0.07601778
221	0xbd11c6f2	-0.03559012
222	0xbd08aa47	-0.033365514
223	0x3df3501e	0.118805155
224	0xbe0ce500	-0.13759232
225	0x3d94aeaa	0.07259877
226	0xbc04d526	-0.008107459
227	0x3d0747d7	0.033027496
228	0x3d1b3c44	0.03789927
229	0xbdaa0469	-0.083016224
230	0xbd37788d	-0.0447927
231	0xbd0b5ab0	-0.034022033
232	0xbd27fa03	-0.041009914
233	0x3ba2fd4d	0.0049740435
234	0xbde3078d	-0.110854246
235	0x3cbe50ef	0.023231952
236	0x3d3bef57	0.04588255
237	0xbd514462	-0.051090606
238	0xbda34463	-0.07972028
239	0xbd892d3f	-0.06698083
240	0x3d70764d	0.05870657
241	0xbd28c707	-0.041205432
242	0x3c7bfd1b	0.015380169
243	0x3d41b30c	0.047289893
244	0xbbb1e9a8	-0.0054294653
245	0xbba8fd5e	-0.005157157
246	0xbb47c348	-0.0030481387
247	0x3ddcf037	0.10788005
248	0x3b4b1d57	0.003099283
249	0xbc47b0d7	-0.012188158
250	0x3da51fcc	0.080627054
251	0xbdf304ce	-0.11866151
252	0xbc454a66	-0.012041664
253	0x3d9f5931	0.07780684
254	0xbdf5cfba	-0.12002511
255	0xbe11555b	-0.14192717

linear2.bias f4 [3]
0	0xba36c3d3	-0.0006971929
1	0xba7afc6b	-0.00095743564
2	0xbd1928c2	-0.037392385
