ai_border/ai_border_no_chase/model/model.pth (torch, 19159 bytes, 4 tensors)

linear1.weight f4 [256, 13]
-0.32028374 -0.17791678 -0.23751928 0.070597775 -0.1421426 -0.021780182 -0.14393061 0.10187786
-0.1988355 -0.16717722 -0.2547545 -0.08317742 0.18472399 -0.058282677 0.13951379 0.18916361
-0.2449128 -0.27529094 0.058682047 -0.057681616 -0.012834614 -0.05443075 -0.1459685 0.1741607
0.14189114 -0.06351471 0.08356338 -0.026835233 0.02017146 0.14252049 0.101034224 -0.1713411
0.040550638 0.0478485 -0.087125234 -0.06980539 0.34310785 -0.29940835 -0.076308884 0.15767434
-0.015222479 -0.13463344 0.22183697 -0.078337654 0.10209971 -0.24020194 0.124569945 0.1698601
-0.07340157 0.15057991 -0.293337 -0.18384287 0.17015038 0.11635357 -0.14803326 0.06944618
-0.056549866 0.03832578 -0.08590722 0.009741311 -0.110260166 -0.20537283 -0.30060795 -0.47050393
0.37117925 0.17836975 -0.054591335 -0.040028416 0.008984848 0.02566747 -0.20919845 -0.20636027
0.21709803 0.004573828 -0.17577253 0.3554931 0.1202197 -0.2316122 0.21317291 -0.0040011257
-0.09507897 0.14377154 0.111867435 0.19740292 0.06924388 -0.032709844 -0.23939295 0.24435264
-0.3999271 0.04503151 0.09961122 0.1896815 -0.031872064 -0.009393445 0.047757495 0.07937165
0.08256049 0.004126758 0.029881699 0.14311464 -0.123306185 -0.32129171 -0.24817657 0.24983172
0.24735053 0.1424616 -0.16705984 0.07291934 0.21619774 0.20172995 -0.37304428 -0.07027738
-0.07945305 -0.24196969 0.19402099 -0.38598186 -0.07802283 0.25562778 -0.22625938 -0.08507095
-0.23946775 0.07634985 -0.14873682 -0.12182547 0.13667321 0.17358842 0.37650204 0.1479377
-0.109364875 0.58903885 -0.09871163 -0.09198981 0.027357861 0.17076443 0.07493132 -0.031779975
-0.07026803 0.076261885 0.08185884 0.38472015 -0.17582886 -0.077981845 0.05747372 0.06795622
0.083403416 0.19628122 -0.15799053 0.109942205 0.094737835 -0.010091411 0.05137638 -0.51875097
0.5202055 0.34121904 -0.21565062 0.030193603 -0.09930937 -0.15019833 -0.079207964 -0.21715617
-0.08970639 -0.13470905 -0.17209813 -0.09065805 -0.22775127 0.15342037 -0.26630738 0.19389464
-0.051346585 0.19105822 0.026006687 0.021930616 0.10874355 -0.042093642 0.16755386 0.22921646
0.16121972 0.09826842 -0.23265275 -0.6167081 0.1915698 -0.444496 0.11783745 -0.1464436
0.09828378 -0.19776022 0.029694906 0.09463151 -0.04347007 -0.24078867 0.21742213 -0.15820375
-0.36214796 0.27748436 -0.22980733 -0.021037253 -0.15689072 0.051796865 0.4009759 -0.05801112
-0.14870504 -0.007433631 0.026993247 -0.025571557 0.26535827 -0.2640843 -0.19060026 -0.1510964
-0.11200502 0.008373383 -0.028956143 0.0031669678 0.047958314 -0.25840148 0.00020166469 0.20481521
0.05201628 -0.226538 -0.056081124 -0.27314577 -0.17810911 0.07033724 -0.24277592 -0.23742735
0.1394508 0.15764992 0.10449739 -0.21759781 -0.17280671 -0.17680381 0.15530033 -0.08413643
-0.1556663 0.35685658 -0.074927 -0.18483347 0.14887571 0.05985359 -0.119084 -0.20231505
0.27438882 -0.214488 0.21169099 -0.10225466 -0.23956072 0.31714067 -0.13321322 -0.17908642
0.14720613 -0.17019498 -0.22506106 0.05384715 -0.06496221 -0.20263271 -0.12132073 -0.15339267
00000000: 3bfc a3be d12f 36be 4138 73be 9195 903d
00000010: d48d 11be 5a6c b2bc 8c62 13be 57a5 d03d
00000020: 899b 4bbe 8130 2bbe 2f6f 82be ec58 aabd
00000030: 4928 3d3e d1b9 6ebd b4dc 0e3e 1bb4 413e
00000040: 6cca 7abe eff2 8cbe 965c 703d 8f43 6cbd
00000050: 4648 52bc c7f2 5ebd c478 15be 2f57 323e
00000060: e94b 113e 0014 82bd 4723 ab3d 90d5 dbbc
00000070: 9e3e a53c e4f0 113e 08eb ce3d 0b74 2fbe
00000080: 6d18 263d cafc 433d b76e b2bd 21f6 8ebd
00000090: d5ab af3e 0d4c 99be d547 9cbd 6275 213e
000000a0: b467 79bc 59dd 09be 3b29 633e 7e6f a0bd
000000b0: a719 d13d 7ff7 75be 871e ff3d ceef 2d3e
000000c0: 9053 96bd 9f31 1a3e 4430 96be 4e41 3cbe
000000d0: e73b 2e3e c84a ee3d 0896 17be cc39 8e3d
000000e0: d5a0 67bd 7efb 1c3d 20f0 afbd 059a 1f3c
000000f0: 15d0 e1bd 414d 52be 49e9 99be e4e5 f0be
00000100: 350b be3e 8fa6 363e 2a9b 5fbd d6f4 23bd
00000110: 2f35 133c 9644 d23c 1e38 56be 1b50 53be
00000120: f24e 5e3e 0de0 953b b7fd 33be 3103 b63e
00000130: bf35 f63d c02b 6dbe 004a 5a3e e01b 83bb
00000140: c3b8 c2bd d938 133e c11a e53d fe23 4a3e
00000150: bccf 8d3d c2fa 05bd 6d23 75be 9437 7a3e
00000160: 3fc3 ccbe f672 383d f800 cc3d de3b 423e
00000170: 488c 02bd f7e6 19bc 5d9d 433d 9b8d a23d
00000180: 7915 a93d c139 873b 77ca f43c a58c 123e
00000190: f487 fcbd 5980 a4be 0022 7ebe e3d3 7f3e
000001a0: 7549 7d3e 74e1 113e bc11 2bbe bc56 953d
000001b0: f162 5d3e 4c92 4e3e a9ff bebe 96ed 8fbd
000001c0: 48b8 a2bd e7c6 77be 70ad 463e 6a9f c5be
000001d0: 6fca 9fbd a5e1 823e 8ab0 67be ae39 aebd
000001e0: 0937 75be 4f5d 9c3d 774e 18be a27f f9bd
000001f0: 10f4 0b3e 2ac1 313e e0c4 c03e fb7c 173e
00000200: b1fa dfbd 40cb 163f 5329 cabd 2765 bcbd
00000210: 981d e03c dfdc 2e3e 9875 993d b82b 02bd
00000220: afe8 8fbd 312f 9c3d 9ca5 a73d 0afa c43e
00000230: 7b0c 34be f2b4 9fbd 9069 6b3d a12c 8b3d
00000240: 69cf aa3d f2fd 483e 45c8 21be 6129 e13d
00000250: e905 c23d 7256 25bc 0a70 523d ddcc 04bf
00000260: 302c 053f 43b4 ae3e 84d3 5cbe 9358 f73c
00000270: b662 cbbd 97cd 19be c937 a2bd 305e 5ebe
00000280: fcb7 b7bd 2bf1 09be 7e3a 30be edaa b9bd
00000290: a137 69be 3b1a 1d3e 7159 88be 518c 463e
000002a0: cc50 52bd c4a4 433e fa0b d53c d6a7 b33c
000002b0: f0b4 de3d 626a 2cbd 3d93 2b3e b8b7 6a3e
000002c0: c816 253e f440 c93d 863c 6ebe 95e0 1dbf
000002d0: e02a 443e fb94 e3be c354 f13d 50f5 15be
000002e0: 0249 c93d a881 4abe bb42 f33c 2ace c13d
000002f0: ac0d 32bd 4e91 76be e8a3 5e3e 2a00 22be
00000300: 756b b9be 6e12 8e3e 9d52 6bbe 5156 acbc
00000310: f6a7 20be f328 543d b74c cd3e 119d 6dbd
00000320: 2246 18be d195 f3bb f120 dd3c 717b d1bc
00000330: 0add 873e 0f36 87be b72c 43be 04b9 1abe
00000340: e362 e5bd 8430 093c 6f35 edbc e78c 4f3b
00000350: f06f 443d 334d 84be f475 5339 14bb 513e
00000360: 060f 553d 94f9 67be 52b5 65bd c3d9 8bbe
00000370: 3c62 36be f90c 903d 409a 78be 2820 73be
00000380: 31cc 0e3e fb6e 213e ba02 d63d f6d1 5ebe
00000390: 3ef4 30be 0f0c 35be 0d07 1f3e b84f acbd
000003a0: fd66 1fbe e8b5 b63e 5473 99bd fc44 3dbe
000003b0: e072 183e 0a29 753d 50e2 f3bd ad2b 4fbe
000003c0: b17c 8c3e bea2 5bbe 86c5 583e e46a d1bd
000003d0: 684f 75be 4360 a23e 0c69 08be 6e62 37be
000003e0: 34bd 163e 9847 2ebe 6876 66be d48e 5c3d
000003f0: e80a 85bd f37e 4fbe 0177 f8bd f812 1dbe

linear1.bias f4 [256]
0.08900642 -0.16678475 0.19144647 0.007902764 0.10558116 -0.17400926 0.09571556 -0.26945916
-0.076421395 0.14636946 0.08089631 0.15967783 -0.26151004 0.17517652 0.2823674 -0.0954047
-0.13405992 0.18613197 0.23464483 -0.35887948 -0.25736994 -0.119576514 0.04983043 0.1657903
-0.08619046 -0.003926752 -0.09515938 0.0016803854 0.19107915 0.3088683 0.20213765 -0.10224378
-0.08485998 0.19811097 -0.044329997 -0.17111419 0.2726562 -0.21462041 0.020676378 -0.32062635
-0.31490242 0.059383113 -0.049210105 0.12553659 -0.10078484 0.1665389 0.13855922 -0.21908422
-0.07674402 0.06351965 0.23188488 -0.27861166 -0.043768026 -0.18191943 -0.30537376 -0.1235592
-0.19370238 0.20589837 -0.3281192 0.19816104 -0.28115425 -0.24138775 0.21252105 0.086565755
0.26898918 0.12910895 0.10061339 -0.04124089 0.060140204 -0.050313693 0.17994007 0.071742356
-0.11424918 -0.052189462 -0.006691036 0.17228445 0.13734938 0.14066117 0.0197632 0.43970507
0.03141636 0.050875615 0.09591539 -0.03218417 -0.36333388 0.13392054 -0.26141432 0.04885664
0.20394789 0.22154665 0.19323374 0.14607075 -0.014698656 0.35742864 0.06349845 0.3000363
0.081339166 0.018449381 -0.060439292 0.12271002 0.18715711 0.050587922 -0.02771138 -0.21438168
-0.34215263 0.027022246 -0.13058747 0.042355612 -0.43481562 0.055691406 -0.15104085 -0.17370655
-0.2987859 0.040733807 -0.17558262 -0.05633837 -0.05358647 -0.18294397 -0.31037122 0.083187066
-0.025984464 0.22692901 -0.037739027 0.2432481 -0.1569448 -0.2662477 0.11401718 0.25936806
-0.30093408 -0.005770673 -0.18331854 -0.31942534 -0.013614591 0.18184505 -0.008133633 0.19274244
0.15523468 -0.048187762 0.19585365 0.064390644 -0.21855253 0.014783997 0.13746344 -0.10510554
-0.11097849 0.09448926 0.11940592 -0.06813401 -0.09288158 -0.03224514 -0.1787488 0.123946846
0.07100754 -0.17259149 0.11053285 -0.3597469 -0.34648362 -0.052217543 -0.26691324 0.19932371
0.18477522 -0.03455143 0.15016805 -0.062771715 0.12783296 0.11492482 -0.07708812 0.18887419
-0.09156122 -0.30938897 -0.24072911 0.097769395 -0.2513172 -0.064406335 0.12488627 0.16709867
0.08141799 -0.015972512 0.09783076 0.1355151 0.18933949 -0.07262511 0.02242546 -0.25634792
-0.00037402086 -0.21375984 0.14614365 -0.23692454 0.015703399 -0.10047549 -0.1829514 -0.021566968
-0.06813629 0.21345952 0.014186521 0.07662385 -0.092608616 0.18919016 0.08009972 -0.050259396
-0.23445867 -0.2388834 0.23498122 0.11543436 -0.3050043 0.052997846 -0.15048267 0.41429654
0.055499226 -0.13174127 0.22408563 0.12553495 0.14061844 -0.1583662 -0.1639453 -0.0018552279
0.1263384 0.15335391 -0.19849989 0.004564702 0.22483 -0.25416595 0.0493141 -0.12849826
-0.039726064 -0.06827608 -0.13658601 0.15644728 0.12695037 0.13078031 0.17148548 -0.16135629
-0.072549485 0.23151286 -0.106679186 -0.07602151 -0.14238058 -0.12687431 0.0033906298 0.31447682
-0.23781769 -0.01721984 -0.40101647 0.07342313 -0.4279115 -0.14653793 0.13894229 -0.06863373
-0.014002762 -0.069913164 -0.3035138 0.19440375 -0.16192083 -0.055118673 0.026571188 0.3207964
00000000: ff48 b63d 9fc9 2abe 8b0a 443e 987a 013c
00000010: ef3a d83d 7c2f 32be 8506 c43d 8df6 89be
00000020: d282 9cbd e0e1 153e f7ac a53d 9682 233e
00000030: a5e4 85be 7961 333e 7692 903e 8a63 c3bd
00000040: 0147 09be 6199 3e3e bc46 703e 0dbf b7be
00000050: fec5 83be 88e4 f4bd fe1a 4c3d efc4 293e
00000060: a084 b0bd fcab 80bb ece2 c2bd 6140 dc3a
00000070: 41aa 433e fc23 9e3e 2cfd 4e3e 3065 d1bd
00000080: 12cb adbd 9add 4a3e 5f93 35bd 8f38 2fbe
00000090: 9899 8b3e 74c5 5bbe 8261 a93c 2329 a4be
000000a0: e43a a1be b53b 733d 8990 49bd aa8c 003e
000000b0: 4868 cebd 2c89 2a3e 78e2 0d3e 9d57 60be
000000c0: f82b 9dbd 9716 823d 3b73 6d3e 30a6 8ebe
000000d0: 1a46 33bd 1649 3abe f359 9cbe 9b0c fdbd
000000e0: eb59 46be 06d7 523e 3dff a7be baea 4a3e
000000f0: 73f3 8fbe 5a2e 77be 1e9f 593e 6349 b13d
00000100: f3b8 893e 2335 043e 650e ce3d 35ec 28bd
00000110: 9355 763d bb15 4ebd 3642 383e a8ed 923d
00000120: 79fb e9bd 9ec4 55bd 7a40 dbbb 566b 303e
00000130: 51a5 0c3e 7b09 103e 6fe6 a13c 0621 e13e
00000140: 71ae 003d f362 503d 4a6f c43d 8cd3 03bd
00000150: e606 babe 7722 093e 19d8 85be e61d 483d
00000160: b7d7 503e 20dd 623e 11df 453e 9293 153e
00000170: a2d2 70bc e300 b73e 7a0b 823d 5c9e 993e
00000180: 2695 a63d 2823 973c 318f 77bd 644f fb3d
00000190: 1da6 3f3e 4835 4f3d fa02 e3bc df86 5bbe
000001a0: a12e afbe c25d dd3c b9b8 05be 147d 2d3d
000001b0: 27a0 debe ac1c 643d 74aa 1abe 21e0 31be
000001c0: 77fa 98be 7ed8 263d eecb 33be 10c3 66bd
000001d0: 7d7d 5bbd aa55 3bbe fae8 9ebe fb5d aa3d
000001e0: 5fdd d4bc 1460 683e 3d94 1abd 0816 793e
000001f0: 23b6 20be 9e51 88be d781 e93d e4cb 843e
00000200: 0814 9abe ea17 bdbb dbb7 3bbe b88b a3be
00000210: bc0f 5fbc 9735 3a3e ee42 05bc 465e 453e
00000220: d7f5 1e3e 8860 45bd dc8d 483e 3edf 833d
00000230: 3ccc 5fbe 9438 723c 37c3 0c3e 9341 d7bd
00000240: b148 e3bd 9683 c13d 178b f43d d889 8bbd
00000250: b338 bebd 7b13 04bd ed09 37be d8d7 fd3d
00000260: 676c 913d d3bb 30be 0c5f e23d bf30 b8be
00000270: 4d66 b1be 10e2 55bd daa8 88be 841b 4c3e
00000280: b735 3d3e cd85 0dbd a7c5 193e 758e 80bd
00000290: a5e6 023e b45d eb3d 60e0 9dbd 3c68 413e
000002a0: 7384 bbbd 3b68 9ebe b181 76be 523b c83d
000002b0: a6ac 80be 78e7 83bd 5fc4 ff3d ea1b 2b3e
000002c0: 7abe a63d c9d8 82bc 7e5b c83d 78c4 0a3e
000002d0: 36e2 413e 79bc 94bd 99b5 b73c 0940 83be
000002e0: 3b18 c4b9 dce3 5abe aea6 153e 599c 72be
000002f0: 6aa4 803c 18c6 cdbd 9d57 3bbe 36ad b0bc
00000300: 0a8b 8bbd 2295 5a3e 956e 683c f7ec 9c3d
00000310: 96a9 bdbd 11bb 413e 520b a43d ccdc 4dbd
00000320: ef15 70be da9d 74be eb9e 703e da68 ec3d
00000330: 8629 9cbe 4514 593d 2118 1abe ad1e d43e
00000340: 2853 633d 2fe7 06be b476 653e 3c8c 003e
00000350: 48fe 0f3e c02a 22be 47e1 27be 1e2b f3ba
00000360: db5e 013e cf08 1d3e 8e43 4bbe 7f93 953b
00000370: d639 663e 0a22 82be 95fd 493d 0c95 03be
00000380: ccb7 22bd 54d4 8bbd 34dd 0bbe b733 203e
00000390: 47ff 013e 46eb 053e e499 2f3e 953a 25be
000003a0: d394 94bd b511 6d3e 9e7a dabd 2ab1 9bbd
000003b0: 37cc 11be 57eb 01be 5435 5e3b 1b03 a13e
000003c0: 7b86 73be 9f10 8dbc 0852 cdbe de5e 963d
000003d0: 3717 dbbe 0a0e 16be e346 0e3e d78f 8cbd
000003e0: d76b 65bc a22e 8fbd 2966 9bbe c711 473e
000003f0: 93ce 25be 1ec4 61bd d2ab d93c 6d3f a43e

linear2.weight f4 [3, 256]
0.034880467 0.08003973 -0.08108668 -0.061769098 -0.15382317 -0.22430566 0.06328325 -0.14618391
-0.14636135 -0.19392137 -0.041228775 -0.2925572 0.015685493 0.34372792 0.12722534 -0.06913499
-0.0066223056 -0.071905375 0.08901336 0.0023093994 -0.009919296 -0.07122265 -0.09015432 -0.116404966
0.25747046 -0.055786178 0.13066892 0.0048903674 -0.0009851272 0.15788823 -0.021498863 0.033200502
0.23222731 0.030089583 -0.168495 0.03795225 0.065037124 -0.04234077 -0.0767947 0.08734414
-0.02202891 -0.18961552 -0.23365721 -0.26665357 0.21487832 -0.08897802 -0.17967007 -0.09746444
0.029400023 -0.09102076 0.11548894 -0.032290537 -0.20710693 -0.083417624 -0.017418614 -0.16012844
-0.0043155802 -0.30170754 0.027728435 -0.16005984 -0.061902642 -0.015144102 -0.07025394 -0.20873146
-0.16291441 0.015066836 -0.089274585 -0.14023079 0.059360437 -0.14709553 0.0814041 0.08220913
-0.1826065 0.12096013 -0.018170219 0.044334535 -0.11659901 -0.036823682 -0.1800764 0.15709564
-0.16052341 -0.005032116 -0.037524622 -0.038665593 -0.011422457 -0.15102336 0.00251384 -0.13286902
0.20735416 -0.20036319 -0.2909763 -0.08675476 -0.10183804 -0.10288158 -0.0025278337 0.10527017
0.42800266 0.04365047 0.028357232 -0.2389621 -0.034721088 -0.019707859 0.020799702 -0.34137014
0.03136129 -0.027276367 0.14355835 -0.024698893 -0.01473409 -0.023017332 -0.016204452 0.06512887
-0.077722915 0.019578071 -0.29309344 -0.122713335 0.16055721 0.16938451 -0.011009098 -0.00780513
-0.051163618 0.020443382 0.039897352 -0.22327259 -0.011320519 -0.044376295 0.3920626 0.23672213
-0.039980095 -0.03043547 -0.022953644 -0.08364246 -0.17456295 -0.09095027 -0.1959375 -0.10784027
0.05907762 0.21797864 -0.17806758 -0.2697729 -0.011728945 -0.27382404 -0.010391058 0.067388415
-0.32086366 -0.018269334 -0.13378984 -0.10314743 -0.11265167 -0.3045818 -0.026680546 0.38155243
-0.13520236 0.116079725 0.16334067 0.06756118 0.020360807 -0.06305848 -0.030470496 -0.051742956
-0.09040548 -0.16991933 -0.005274158 0.011390622 0.0027878648 0.09382899 -0.035172187 -0.17550413
0.0070427703 -0.0058146184 -0.021427535 0.038864776 -0.38266098 -0.25417987 -0.044786226 0.065644674
0.055009976 -0.27615166 -0.0758856 0.07016147 -0.14452292 -0.043507684 0.09738042 -0.09232488
-0.12981816 -0.056259327 -0.07566407 -0.14311406 -0.06348179 -0.021847425 -0.49236494 -0.033482186
0.01763329 0.04894554 -0.04560352 -0.043154936 -0.077919036 0.09644667 0.09517212 0.16252698
-0.18441068 -0.22177777 -0.15873894 -0.21840136 0.0006442464 -0.024979599 -0.025888357 0.07375541
-0.10212894 -0.01273229 0.38789892 0.04392653 -0.17608942 -0.08729373 0.10649639 -0.12324734
0.029338906 0.04793142 0.33376732 -0.266812 -0.21159923 -0.0067851916 0.12034829 -0.06047532
-0.17149864 0.023326684 -0.2248105 -0.11624541 -0.18524837 0.056814767 -0.16108638 -0.14996365
0.0060044727 0.024217362 -0.04391565 -0.1642518 0.06703847 -0.2233831 0.39930943 0.06660624
-0.11268578 -0.04289974 0.05255931 -0.20430763 0.002048075 0.041451745 -0.19798924 0.1816504
-0.21910746 -0.19858722 -0.14466195 -0.26670253 0.011000687 -0.10052926 -0.15090524 0.008972949
00000000: d2de 0e3d dfeb a33d c610 a6bd 9801 7dbd
00000010: d283 1dbe 62b0 65be a69a 813d 3cb1 15be
00000020: c0df 15be 5393 46be 81df 28bd 0fca 95be
00000030: dd7e 803c 1bfd af3e 5c47 023e a596 8dbd
00000040: edff d8bb 2043 93bd a34c b63d 4b59 173b
00000050: 8b84 22bc 2edd 91bd d4a2 b8bd ba65 eebd
00000060: 2bd3 833e 0c80 64bd 13ce 053e 603f a03b
00000070: 621f 81ba 74ad 213e 621e b0bc 40fd 073d
00000080: ffcc 6d3e 6e7e f63c f489 2cbe d273 1b3d
00000090: 2f32 853d 846d 2dbd 8a46 9dbd 7ce1 b23d
000000a0: f975 b4bc 922a 42be d643 6fbe d186 88be
000000b0: 1009 5c3e 1c3a b6bd 6efb 37be 709b c7bd
000000c0: 51d8 f03c 1869 babd 7785 ec3d 1543 04bd
000000d0: d713 54be dcd6 aabd 7bb1 8ebc b6f8 23be
000000e0: b669 8dbb 6979 9abe be26 e33c bae6 23be
000000f0: a08d 7dbd f81e 78bc 4ce1 8fbd b3bd 55be
00000100: 09d3 26be e4da 763c 98d5 b6bd a998 0fbe
00000110: ee23 733d 36a0 16be 31b7 a63d 435d a83d
00000120: 33fd 3abe f2b9 f73d b6d9 94bc 2198 353d
00000130: 76cb eebd 6ed4 16bd f365 38be aedd 203e
00000140: 4060 24be 73e4 a4bb 6bb3 19bd d05f 1ebd
00000150: 4225 3bbc dea5 1abe 3dbf 243b d10e 08be
00000160: a654 543e 022c 4dbe d8fa 94be 7bac b1bd
00000170: 7690 d0bd 94b3 d2bd 03aa 25bb e397 d73d
00000180: 2a23 db3e d6ca 323d 6d4d e83c 7bb2 74be
00000190: b337 0ebd 6072 a1bc 2364 aa3c 11c8 aebe
000001a0: b274 003d b072 dfbc f600 133e 5555 cabc
000001b0: 4167 71bc d88e bcbc 33bf 84bc 4962 853d
000001c0: 312d 9fbd 3162 a03c 5810 96be 2151 fbbd
000001d0: 1c69 243e 2273 2d3e 815f 34bc 2dc2 ffbb
000001e0: f190 51bd e178 a73c 686b 233d 92a1 64be
000001f0: b379 39bc ebc3 35bd 6ebc c83e 4967 723e
00000200: 2bc2 23bd cf53 f9bc 4809 bcbc bd4c abbd
00000210: a1c0 32be 2344 babd d7a3 48be 5cdb dcbd
00000220: 60fb 713d cb35 5f3e 5957 36be ac1f 8abe
00000230: c32a 40bc aa32 8cbe 423f 2abc f002 8a3d
00000240: 3e48 a4be 92a9 95bc 3400 09be f63e d3bd
00000250: ebb5 e6bd 25f2 9bbe 2991 dabc d75a c33e
00000260: 7d72 0abe 35bb ed3d c742 273e 845d 8a3d
00000270: b5cb a63c ce24 81bd 439d f9bc 6cf0 53bd
00000280: 8226 b9bd 55ff 2dbe d8d2 acbb bb9f 3a3c
00000290: 9cb4 363b 6a29 c03d b610 10bd 5bb7 33be
000002a0: 0ac7 e63b 8e88 bebb cc88 afbc ac30 1f3d
000002b0: 24ec c3be dd23 82be c371 37bd b770 863d
000002c0: 2452 613d c063 8dbe e969 9bbd d1b0 8f3d
000002d0: d1fd 13be 1d35 32bd 636f c73d d414 bdbd
000002e0: 0def 04be 2e70 66bd c4f5 9abd 7e8c 12be
000002f0: be02 82bd 5ff9 b2bc 4217 fcbe 9e24 09bd
00000300: b073 903c 1e7b 483d c2ca 3abd 3bc3 30bd
00000310: 0494 9fbd d585 c53d 9ae9 c23d 796d 263e
00000320: 27d6 3cbe b619 63be 768c 22be 9ba4 5fbe
00000330: a5e2 283a 04a2 ccbc d213 d4bc 140d 973d
00000340: fa28 d1bd 189b 50bc b09a c63e 4eec 333d
00000350: c950 34be 0ec7 b2bd c81a da3d 1a69 fcbd
00000360: 2558 f03c bd53 443d 8de3 aa3e 959b 88be
00000370: 78ad 58be 5056 debb 2a79 f63d f8b4 77bd
00000380: 579d 2fbe 9a17 bf3c b934 66be 1312 eebd
00000390: c0b1 3dbe 9ab6 683d d4f3 24be 1290 19be
000003a0: 2bc1 c43b 7d63 c63c e6e0 33bd a031 28be
000003b0: 774b 893d 8abe 64be 4972 cc3e da68 883d
000003c0: cdc7 e6bd a3b7 2fbd 6e48 573d 0536 51be
000003d0: ff38 063b 4ec9 293d b1bd 4abe 9002 3a3e
000003e0: b55d 60be 735a 4bbe 4322 14be 3c8d 88be
000003f0: 3a3c 343c 49e2 cdbd e786 1abe 4703 133c

linear2.bias f4 [3]
0.075316995 -0.05420705 -0.040207583
00000000: cc3f 9a3d 3608 5ebd b5b0 24bd
