ai_border/model/model.pth (torch, 32299 bytes, 6 tensors)

linear1.weight f4 [64, 48]
-0.018620221 -0.081343226 0.046991248 -0.032783285 -0.05484263 -0.07219747 -0.09500672 -0.07321613
0.06128087 -0.020296695 -0.038311534 -0.1250987 0.02513692 0.01877784 0.044752102 -0.045041524
-0.09133899 -0.15270083 -0.07939232 -0.09779368 0.09489936 -0.048419017 0.043245967 0.0538074
-0.11446472 -0.017617553 0.04638016 0.03655019 -0.22762962 0.026877739 -0.023597948 0.039738253
0.011445438 -0.08200009 -0.08472453 -0.011367318 -0.0004034132 0.02841005 0.09399316 -0.14465702
0.026952123 0.0063694725 -0.13450128 -0.14319651 -0.08074006 -0.14328827 -0.07390262 -0.035899512
0.057917133 -0.005296124 0.016184527 0.11589169 0.11844812 0.11552443 -0.16348979 -0.12650646
0.058131173 -0.10783728 0.059084564 -0.019152163 0.23314182 -0.0029375758 0.060308564 -0.20899418
-0.18324597 0.26051483 0.13308114 -0.08229623 -0.0076791947 -0.0067099896 -0.12639618 0.11264584
-0.119639784 -0.19597176 -0.25548494 -0.14682144 -0.056454614 -0.123973876 -0.16992347 -0.0656723
0.034676686 0.041136563 -0.1520198 -0.044688005 -0.14066997 0.079767875 -0.118163794 -0.019278442
-0.21038187 -0.009446218 -0.13987105 -0.06363613 -0.19458416 0.01593316 0.0058749435 -0.32729572
0.008295665 0.113228045 0.15000267 0.142534 0.049287815 -0.0217875 -0.021500243 0.08759965
0.22568588 0.022578828 -0.009755911 0.16233435 0.14304526 0.17523976 0.14338721 -0.073396824
-0.043911032 -0.07273318 0.1098649 0.16629106 0.10589016 -0.028593838 -0.018124443 0.015097005
0.09235343 0.06483205 -0.007417562 0.15422095 0.043065526 -0.06781428 0.11295192 -0.099089555
-0.09018257 0.015365563 0.05811519 0.10974995 0.07505981 0.018847112 0.044282977 0.0086399205
-0.08396312 0.111608416 -0.023682533 -0.0816634 0.3772022 0.44842643 0.1357843 0.57355684
-0.11211439 -0.15620945 -0.012282988 -0.14360406 -0.1287158 0.12004812 -0.15039793 0.020525787
-0.01715922 -0.0717385 -0.19361816 -0.13269636 0.03218312 -0.18499322 -0.22093569 -0.20867746
-0.1432254 -0.021116177 0.043595918 -0.27154374 -0.18708274 -0.11204924 0.11647876 -0.172714
-0.08212701 -0.23399404 -0.027837528 0.15962292 -0.22476822 -0.08316256 -0.24917097 0.04014357
-0.14255865 -0.20221221 0.0103542805 -0.048380118 0.10752948 0.114587665 -0.11816389 -0.082328595
-0.05876361 -0.018762333 0.10550774 -0.323207 -0.11340804 0.16774659 0.02804378 0.049434863
0.100659855 -0.15754375 -0.0720784 -0.120895535 0.13399573 -0.018344235 0.10985449 -0.0897256
-0.20832366 0.22268602 0.10928215 0.17197372 0.120648384 -0.09377812 -0.0060034427 0.10077084
-0.0037811343 0.15573165 -0.12135849 0.04879868 0.043051988 0.009096404 -0.10377043 0.05814985
-0.013544108 0.020970797 -0.22446166 0.008680242 -0.15928477 -0.099825725 0.17879306 -0.012523422
0.113011 -0.019573562 -0.16016375 0.19016762 -0.10036904 0.15304683 -0.21547177 -0.01701267
0.20850232 -0.12030097 -0.010582375 0.035374492 -0.7057668 -0.4891501 0.35580093 -0.5031804
-0.0008244789 0.014209793 0.122147165 0.15791152 -0.13287142 -0.09699307 -0.005539795 -0.097862564
0.046651542 0.07910646 -0.23224916 0.002771664 0.025032034 0.034211602 -0.06372994 -0.39617893
00000000: 6f89 98bc 4797 a6bd e579 403d c447 06bd
00000010: aaa2 60bd 44dc 93bd e292 c2bd 57f2 95bd
00000020: a601 7b3d 4145 a6bc 8eec 1cbd e019 00be
00000030: f1eb cd3c fcd3 993c fb4d 373d 767d 38bd
00000040: f00f bbbd 9b5d 1cbe 7198 a2bd 0e48 c8bd
00000050: 985a c23d 0553 46bd af22 313d 2665 5c3d
00000060: 7b6c eabd b052 90bc 1ff9 3d3d a7b5 153d
00000070: bd17 69be b42e dc3c 7c50 c1bc 94c4 223d
00000080: a585 3b3c aaef a7bd 0e84 adbd fd3d 3abc
00000090: 3481 d3b9 31bc e83c 7c7f c03d f820 14be
000000a0: b3ca dc3c 02b7 d03b b4ba 09be 1ba2 12be
000000b0: 0b5b a5bd 29ba 12be 425a 97bd 5e0b 13bd
000000c0: 843a 6d3d 1c8b adbb 6a95 843c 9f58 ed3d
000000d0: ee94 f23d 1398 ec3d de69 27be e98a 01be
000000e0: f41a 6e3d cbd9 dcbd a802 723d ffe4 9cbc
000000f0: bbbc 6e3e 5884 40bb 1d06 773d 9202 56be
00000100: d5a4 3bbe 3362 853e 6c46 083e ed8a a8bd
00000110: c1a1 fbbb 79df dbbb 006e 01be ddb2 e63d
00000120: b405 f5bd d2ac 48be ecce 82be 5c58 16be
00000130: f43c 67bd 04e6 fdbd 6b00 2ebe 337f 86bd
00000140: 2409 0e3d d07e 283d 14ab 1bbe c50a 37bd
00000150: ca0b 10be 575d a33d dcff f1bd d3ed 9dbc
00000160: 586e 57be 4fc4 1abc 5b3a 0fbe a953 82bd
00000170: 1241 47be 4286 823c 9982 c03b 4e93 a7be
00000180: 8aea 073c 1be4 e73d 4d9a 193e 6ff4 113e
00000190: 05e2 493d b37b b2bc 4721 b0bc 7267 b33d
000001a0: 331a 673e 3cf7 b83c 42d7 1fbc fa3a 263e
000001b0: 757a 123e 0d72 333e 19d4 123e 1351 96bd
000001c0: 0edc 33bd 22f5 94bd d900 e13d 3448 2a3e
000001d0: f1dc d83d a03d eabc b679 94bc 6e59 773c
000001e0: cc23 bd3d aac6 843d 050f f3bb 19ec 1d3e
000001f0: 7a65 303d 37e2 8abd 5653 e73d 77ef cabd
00000200: a4b1 b8bd d8bf 7b3c 320a 6e3d 95c4 e03d
00000210: f5b8 993d 4265 9a3c 1162 353d 748e 0d3c
00000220: dbf4 abbd f492 e43d df01 c2bc 243f a7bd
00000230: a620 c13e 2698 e53e 0a0b 0b3e 9fd4 123f
00000240: 3b9c e5bd 5ff5 1fbe 963e 49bc f10c 13be
00000250: 13ce 03be cadb f53d ea01 1abe b225 a83c
00000260: 7e91 8cbc a2eb 92bd d743 46be 8ee1 07be
00000270: 72d2 033d dd6e 3dbe f73c 62be 8baf 55be
00000280: aea9 12be d5fb acbc a291 323d c807 8bbe
00000290: 9e92 3fbe 127a e5bd 6b8c ee3d f0db 30be
000002a0: 3532 a8bd 229c 6fbe 870b e4bc 3174 233e
000002b0: a429 66be 2251 aabd ad26 7fbe 966d 243d
000002c0: e5fa 11be b810 4fbe 00a5 293c 3b2a 46bd
000002d0: 6a38 dc3d f0ac ea3d e9ff f1bd e59b a8bd
000002e0: 1cb2 70bd 77b3 99bc 7114 d83d 637b a5be
000002f0: 7942 e8bd c3c5 2b3e 12bc e53c 367c 4a3d
00000300: c126 ce3d 2653 21be d79d 93bd 1498 f7bd
00000310: 2d36 093e a646 96bc 64fb e03d 0ec2 b7bd
00000320: cc52 55be ce07 643e 52cf df3d e119 303e
00000330: 8016 f73d be0e c0bd 87b8 c4bb f160 ce3d
00000340: e8cc 77bb 1e78 1f3e cd8a f8bd 20e1 473d
00000350: 4857 303d 1509 153c 9785 d4bd 8a2e 6e3d
00000360: 1be8 5dbc f3ca ab3c 47d9 65be 9337 0e3c
00000370: 8c1b 23be 6e71 ccbd 8715 373e 0a2f 4dbc
00000380: 5072 e73d bc58 a0bc f701 24be 4dbb 423e
00000390: 498e cdbd 4fb8 1c3e a2a4 5cbe 285e 8bbc
000003a0: a281 553e 5b60 f6bd b361 2dbc d8e4 103d
000003b0: 22ad 34bf e271 fabe 8a2b b63e 6ed0 00bf
000003c0: d821 58ba 31d0 683c 4b28 fa3d 8fb3 213e
000003d0: 720f 08be 4da4 c6bd 2b87 b5bb 2b6c c8bd
000003e0: b015 3f3d 9102 a23d b9d2 6dbe cea4 353b
000003f0: fb0f cd3c 7721 0c3d d884 82bd f7d7 cabe

linear1.bias f4 [64]
-0.14022528 -0.096816644 0.071863666 -0.12783353 0.32571182 0.054149833 0.022625308 -0.051104583
-0.17619005 0.30147266 0.20499149 0.021986667 -0.1987635 0.19663379 -0.01991631 -0.37081042
-0.07184626 0.15813237 -0.0077465335 -0.056720644 0.17605019 0.06801236 -0.05472657 0.031110175
0.039327882 0.10013961 -0.094564706 -0.29453638 0.28641763 -0.105376184 0.086300656 -0.053273372
0.13155739 -0.042744193 0.06211883 0.093182005 0.14959356 -0.07004177 0.34766823 -0.052013386
-0.015526052 0.06680734 -0.15345716 0.103788644 -0.19750158 -0.2086894 -0.003354832 0.109205216
0.13892128 -0.005939619 -0.11083498 -0.14130422 0.23570664 0.034382507 -0.047688212 -0.010529414
0.22501971 -0.029563282 0.19592379 -0.08314571 0.089250624 -0.11021952 0.05873926 0.12076178
00000000: 3797 0fbe ce47 c6bd 422d 933d cbe6 02be
00000010: b3c3 a63e 37cc 5d3d b658 b93c 0a53 51bd
00000020: 2a6b 34be a05a 9a3e 4ae9 513e 621d b43c
00000030: a988 4bbe 5e5a 493e 8827 a3bc ddda bdbe
00000040: 2224 93bd 74ed 213e a2d6 fdbb e853 68bd
00000050: 8046 343e 104a 8b3d f828 60bd c4da fe3c
00000060: 4616 213d ff15 cd3d 24ab c1bd 79cd 96be
00000070: 55a5 923e 78cf d7bd 66be b03d 2e35 5abd
00000080: fbb6 063e 8914 2fbd 5070 7e3d 35d6 be3d
00000090: 0e2f 193e 0f72 8fbd 9201 b23e fd0b 55bd
000000a0: fb60 7ebc 49d2 883d e023 1dbe 248f d43d
000000b0: db3d 4abe adb2 55be bedc 5bbb fca6 df3d
000000c0: 6141 0e3e 23a1 c2bb 73fd e2bd 0eb2 10be
000000d0: 155d 713e acd4 0c3d b754 43bd 9083 2cbc
000000e0: 916b 663e b22e f2bc 3fa0 483e 4c48 aabd
000000f0: 08c9 b63d c6ba e1bd 9498 703d f451 f73d

linear2.weight f4 [64, 64]
-0.12197496 0.08245096 -0.06377064 -0.07583475 0.045922946 0.06040481 0.014811767 0.02022645
0.012953878 -0.05325163 -0.14661556 -0.040090784 -0.036706157 -0.028515995 -0.0411112 0.053582415
-0.065035686 -0.13141042 0.104970604 -0.10214251 -0.118811 0.03508305 0.04067372 -0.1694689
-0.07015682 0.0010981389 -0.08634113 0.106673546 -0.10172006 -0.119629204 -0.08323266 -0.1034913
-0.068890795 -0.12492128 0.022628557 -0.06335867 0.07903789 -0.035080466 -0.009678588 0.012694753
0.042554572 -0.1265859 0.014622492 -0.079843 0.023805281 0.05796526 0.045725297 0.07161667
-0.020782784 0.039707687 0.015468503 0.056180757 0.06923901 -0.13150522 -0.08317545 -0.16675286
-0.08607621 -0.11052917 0.013886005 0.042550705 -0.024673576 0.047640108 -0.14335424 -0.0702115
0.062298857 -0.041088022 -0.123346806 -0.15653332 0.47217777 -0.01362907 0.061789993 -0.23453645
-0.1556399 -0.026663695 0.5218965 -0.29474843 0.018651659 0.007541599 -0.22285339 0.23032534
-0.008516722 0.22713512 -0.03342338 -0.013555835 0.028353974 0.20028165 0.10659431 0.009384364
-0.16526486 0.105947085 0.010703502 -0.026356248 0.3387907 -0.13809474 -0.014874291 0.047477603
-0.1394665 0.22530958 0.036829278 0.24933204 0.5016164 0.11509396 0.11320806 -0.25103748
-0.19242612 -0.020238237 -0.08641151 0.074465156 0.12872693 0.15118688 -0.19112843 -0.11130692
0.05882035 -0.031757094 0.38215604 0.055300523 0.18753308 0.07601045 -0.073331304 0.48829237
0.2052103 0.21005422 0.294791 -0.094777636 0.015446071 -0.060684852 -0.19455422 0.08065053
-0.11607419 -0.019591171 -0.048148595 0.12082346 0.034372047 -0.04106517 -0.0245734 -0.09814404
0.09887011 0.0012674413 -0.06967051 -0.011422604 -0.003999278 0.083062336 0.020297088 -0.004042081
0.035653565 0.027113164 0.11384803 0.05430223 -0.0889194 -0.025683606 -0.05682248 -0.06365742
0.047874644 0.10219428 -0.09386609 0.01940994 -0.07769318 -0.07795088 -0.042959336 -0.10462188
0.103920385 0.07266631 -0.105621636 -0.0022272102 -0.022563223 -0.016266556 -0.124142095 -0.082475096
-0.12395449 -0.05862538 -0.048905298 -0.01670651 -0.07454534 0.029266188 0.016212914 -0.1187794
-0.031782955 0.018880507 0.037764072 0.10254131 -0.11082478 -0.031011185 -0.014767081 0.022256225
-0.060106292 0.029243663 0.059096113 -0.12346405 -0.011443824 -0.02097145 -0.029657237 -0.03864535
0.08789336 0.11412392 -0.16161844 -0.05752082 0.03733015 0.03574089 -0.024329273 -0.033816356
-0.052603822 0.08277293 -0.11133967 0.009550065 0.056710713 0.09897637 -0.034300134 -0.005941472
0.035448305 0.098437086 -0.032435544 -0.07274535 -0.15156591 -0.024350392 -0.072654426 -0.092610896
0.019662127 0.05141876 -0.049348045 0.06902621 0.087482266 0.09361385 0.016642783 0.08761112
-0.051937472 -0.0754883 -0.10708992 0.055996884 0.018835029 0.032193866 -0.11332828 -0.08037634
-0.05989769 0.011283383 -0.088491626 0.07154273 0.05909367 0.01997836 0.043728106 0.052407183
0.021443501 -0.04520395 0.032180786 0.025111258 0.051388104 -0.061817538 0.029887702 -0.06965278
-0.059402097 -0.06269198 -0.05286169 -0.08039594 0.035014622 -0.13186125 -0.04473233 0.0025888742
00000000: 02ce f9bd 0ddc a83d 2e9a 82bd 404f 9bbd
00000010: b319 3c3d 096b 773d 0ead 723c f1b1 a53c
00000020: 813c 543c 621e 5abd 6422 16be 3c36 24bd
00000030: 3259 16bd 609a e9bc 3864 28bd 3c79 5b3d
00000040: 6e31 85bd 7490 06be d4fa d63d 1830 d1bd
00000050: 2e53 f3bd 3fb3 0f3d 7d99 263d 4189 2dbe
00000060: 61ae 8fbd 6def 8f3a 9ed3 b0bd a977 da3d
00000070: 9b52 d0bd 2800 f5bd e375 aabd 3ff3 d3bd
00000080: 9e16 8dbd bad6 ffbd 865f b93c 31c2 81bd
00000090: 9ede a13d 89b0 0fbd f192 1ebc a7fd 4f3c
000000a0: b44d 2e3d bc9f 01be 2d93 6f3c ba84 a3bd
000000b0: 4b03 c33c fb6c 6d3d 734a 3b3d c3ab 923d
000000c0: a840 aabc 87a4 223d 9b6f 7d3c cb1d 663d
000000d0: 2fcd 8d3d 4ea9 06be e457 aabd 43c1 2abe
000000e0: b948 b0bd 1e5d e2bd 2082 633c a649 2e3d
000000f0: 3d20 cabc 4622 433d 74cb 12be 0ccb 8fbd
00000100: 162d 7f3d ea4b 28bd 409d fcbd 454a 20be
00000110: 49c1 f13e 764c 5fbc 8117 7d3d 532a 70be
00000120: 1160 1fbe d26d dabc 029b 053f 44e9 96be
00000130: 5dcb 983c 851f f73b ae33 64be 68da 6b3e
00000140: b989 0bbc 1c96 683e f4e6 08bd 4b19 5ebc
00000150: 9846 e83c a216 4d3e 1e4e da3d e0c0 193c
00000160: 313b 29be c9fa d83d be5d 2f3c 0fe9 d7bc
00000170: fa75 ad3e b568 0dbe 4cb3 73bc e077 423d
00000180: 4ed0 0ebe 8eb7 663e 4cda 163d e650 7f3e
00000190: ef69 003f 62b6 eb3d a1d9 e73d fc87 80be
000001a0: 5a0b 45be a9ca a5bc 85f8 b0bd 3081 983d
000001b0: fed0 033e bcd0 1a3e 2cb7 43be e2f4 e3bd
000001c0: 9bed 703d ba13 02bd f5a9 c33e cd82 623d
000001d0: ac08 403e 5eab 9b3d b92e 96bd 7501 fa3e
000001e0: a622 523e 7418 573e d9ee 963e c71a c2bd
000001f0: 8411 7d3c ae90 78bd 3939 47be 1b2c a53d
00000200: 4eb8 edbd aa7d a0bc 7637 45bd 4a72 f73d
00000210: b4c9 0c3d f433 28bd 284e c9bc beff c8bd
00000220: 6a7c ca3d 4620 a63a 6aaf 8ebd e025 3bbc
00000230: 600c 83bb 961c aa3d 1446 a63c 6f73 84bb
00000240: 7909 123d 6d1c de3c 2829 e93d 046c 5e3d
00000250: 601b b6bd 6d66 d2bc b0be 68bd d25e 82bd
00000260: 3418 443d 3c4b d13d dd3c c0bd 9801 9f3c
00000270: 9a1d 9fbd b6a4 9fbd 21f6 2fbd ff43 d6bd
00000280: 36d4 d43d 13d2 943d 2850 d8bd 63f6 11bb
00000290: 82d6 b8bc 7141 85bc 363e febd b4e8 a8bd
000002a0: dadb fdbd 2b21 70bd ec50 48bd 17dc 88bc
000002b0: 3aab 98bd a5bf ef3c f2d0 843c 9d42 f3bd
000002c0: d82e 02bd 4bab 9a3c 80ae 1a3d 2e01 d23d
000002d0: 1af8 e2bd 2b0b febc a0f1 71bc b052 b63c
000002e0: 0432 76bd 6890 ef3c c40e 723d b8da fcbd
000002f0: e07e 3bbc 51cc abbc bcf3 f2bc 964a 1ebd
00000300: 6f01 b43d cdb9 e93d 4e7f 25be f49a 6bbd
00000310: 80e7 183d 0a65 123d 2f4e c7bc 0583 0abd
00000320: 1b77 57bd db84 a93d 0e06 e4bd e077 1c3c
00000330: 7e49 683d 20b4 ca3d 4c7e 0cbd aeb0 c2bb
00000340: 3e32 113d 6299 c93d 22db 04bd 84fb 94bd
00000350: 1834 1bbe 797a c7bc d8cb 94bd c8aa bdbd
00000360: 7812 a13c 7a9c 523d 2d21 4abd 9d5d 8d3d
00000370: e729 b33d 9eb8 bf3d 7256 883c 756d b33d
00000380: 63bc 54bd 9c99 9abd f651 dbbd fd5c 653d
00000390: eb4b 9a3c b7dd 033d a818 e8bd 5a9c a4bd
000003a0: 4857 75bd f0dd 383c 193b b5bd ff84 923d
000003b0: 340c 723d a8a9 a33c 3e1c 333d eaa8 563d
000003c0: 48aa af3c c727 39bd 00d0 033d 20b6 cd3c
000003d0: 557c 523d 6334 7dbd 0ed7 f43c 1ea6 8ebd
000003e0: 9d4f 73bd a764 80bd 8085 58bd a0a6 a4bd
000003f0: 7e6b 0f3d a306 07be 3f39 37bd 1aaa 293b

linear2.bias f4 [64]
-0.14193112 -0.0519131 0.03520214 -0.094717465 0.2148458 0.02515005 0.015037697 -0.08967033
0.1653379 0.29699615 0.049874015 0.2319776 0.2763216 -0.03118813 -0.06431216 -0.0843997
0.005544746 -0.124323055 0.019193236 0.3539592 -0.1052119 -0.15028568 0.05343841 0.22578701
-0.079149276 -0.18231238 0.069894135 0.14014608 -0.0013570233 0.26979965 0.053181805 -0.12304996
-0.08274196 -0.10185413 0.36869878 0.355835 0.21753868 -0.13193624 -0.08556447 -0.0010762907
0.24801022 0.20445669 -0.10183622 0.11860194 0.055122156 0.014273359 0.064036466 0.04865278
-0.095158726 -0.05521471 0.04032773 -0.008695886 0.0893055 0.015552309 -0.13278303 0.26565894
0.17884992 0.21230052 0.3549951 0.3625702 -0.19287455 0.1961133 0.18604758 -0.09074951
00000000: 6456 11be d5a2 54bd 1f30 103d 3bfb c1bd
00000010: 8a00 5c3e 7a07 ce3c ac60 763c 14a5 b7bd
00000020: 574e 293e e10f 983e b248 4c3d 898b 6d3e
00000030: 067a 8d3e 407e ffbc 18b6 83bd c0d9 acbd
00000040: b3b0 b53b 169d febd 223b 9d3c 243a b53e
00000050: 5679 d7bd 7de4 19be 3ce2 5a3d b634 673e
00000060: 0419 a2bd 19b0 3abe a824 8f3d 7482 0f3e
00000070: 25de b1ba 2e23 8a3e 2ad5 593d 9e01 fcbd
00000080: 9e74 a9bd e698 d0bd 16c6 bc3e 0130 b63e
00000090: 76c2 5e3e 4b1a 07be 6d3c afbd 5312 8dba
000000a0: 64f6 7d3e 185d 513e 828f d0bd 93e5 f23d
000000b0: c5c7 613d cfda 693c 8d25 833d 2348 473d
000000c0: 94e2 c2bd d228 62bd b12e 253d 3079 0ebc
000000d0: cde5 b63d 1dcf 7e3c 46f8 07be 7304 883e
000000e0: 6f24 373e 4f65 593e ebc1 b53e cda2 b93e
000000f0: e880 45be edd1 483e 4283 3e3e e1da b9bd

linear3.weight f4 [3, 64]
0.012444401 0.20300217 -0.027412966 0.08995344 -0.22389333 -0.0790966 0.0056501487 0.048790574
-0.26848772 0.06580279 0.064389795 -0.20715018 -0.08149665 -0.014360087 -0.07234494 -0.056471005
0.05137308 -0.021939652 0.026559846 0.084451355 0.039366357 0.14924902 -0.030094257 -0.36529875
0.06794439 0.039573714 -0.38179204 -0.3046699 -0.20850174 -0.18634365 0.029381149 -0.11672495
0.01652032 -0.22354174 0.15871975 0.25123328 -0.2565081 -0.003007925 0.08536876 -0.44044855
0.24548423 -0.27018255 0.027445113 0.026029462 -0.2628826 0.064351864 -0.09831327 0.04710527
0.04554668 -0.030269971 -0.008940138 -0.057670668 0.20502448 0.031517696 -0.10567625 -0.21910648
-0.26071382 -0.15267263 0.24797186 0.1773515 -0.06672406 -0.055303972 -0.1607211 0.045863263
-0.0061651804 -0.05044242 0.066004016 -0.07770045 -0.11099674 -0.0026889802 0.095199816 -0.040074058
-0.15000524 -0.19470982 0.039193347 0.030586865 -0.116543636 0.018060219 -0.050342295 -0.05189595
0.005354196 0.090734586 -0.16033502 -0.22386289 0.48843306 0.05073292 -0.010091825 -0.18612228
-0.036467742 0.090819776 -0.1477359 -0.11448191 0.060169138 -0.13955912 -0.09486993 0.012272105
0.028996121 0.16284277 -0.1788584 -0.1541236 -0.13339913 0.053741172 0.052722648 0.13812558
-0.13975458 -0.062182818 -0.09439887 -0.11834041 -0.18716611 0.04875782 0.06377804 -0.010321042
-0.006340578 0.04551941 -0.027297402 0.04788136 -0.14821948 -0.05071734 0.07577376 -0.07488796
-0.191193 -0.14470246 -0.233641 -0.12530236 4.6809113e-05 -0.12333237 -0.02288882 0.0090665575
0.015169315 0.29717502 0.05999073 -0.012342829 -0.13274072 -0.10981748 0.04022843 0.010410924
-0.20785218 -0.23205468 0.02296765 -0.24137908 0.028445361 -0.15731795 -0.022258414 0.08005845
0.035071213 0.06017714 -0.019091785 -0.13231471 -0.042989835 0.027278556 -0.018400427 0.039176002
0.015292575 -0.029474411 0.04459254 0.17242223 0.13293189 -0.18655378 0.08409564 0.038900148
-0.0021115916 -0.07687388 -0.1922795 -0.26784194 -0.06740342 0.13729382 -0.04811825 0.14940228
-0.15164098 -0.112037696 0.12325793 0.10637974 -0.16036971 -0.0071745394 -0.24459137 0.06627438
-0.013943061 -0.018499559 -0.009280774 -0.01955956 0.08049937 0.0706123 0.045303985 -0.24624787
-0.1987541 -0.20026214 -0.026614754 -0.26368973 0.0647309 -0.22358046 -0.22301218 0.11095286
00000000: 9ae3 4b3c cddf 4f3e 2891 e0bc 8239 b83d
00000010: 4b44 65be 66fd a1bd e224 b93b a0d8 473d
00000020: 3977 89be 9dc3 863d ccde 833d 2d1f 54be
00000030: b7e7 a6bd 9246 6bbc 9529 94bd 244e 67bd
00000040: 946c 523d c9ba b3bc 0994 d93c d5f4 ac3d
00000050: 9e3e 213d bcd4 183e 3b88 f6bc 7008 bbbe
00000060: 6e26 8b3d 0c18 223d 3f7a c3be b1fd 9bbe
00000070: 7b81 55be dfd0 3ebe bcb0 f03c 7e0d efbd
00000080: 9f55 873c 20e8 64be 6e87 223e a6a1 803e
00000090: 0855 83be 9c20 45bb d1d5 ae3d 7982 e1be
000000a0: 3860 7b3e 5e55 8abe 93d4 e03c bd3b d53c
000000b0: 8c98 86be e9ca 833d 7858 c9bd 75f1 403d
000000c0: 288f 3a3d bbf8 f7bc a879 12bc 1438 6cbd
000000d0: f0f1 513e b318 013d ca6c d8bd 735d 60be
000000e0: 487c 85be 3756 1cbe 56ec 7d3e a29b 353e
000000f0: a0a6 88bd 6b86 62bd 1294 24be 1edb 3b3d
00000100: 4805 cabb b69c 4ebd 1d2d 873d 6a21 9fbd
00000110: 4252 e3bd 9a39 30bb 1ff8 c23d b224 24bd
00000120: f99a 19be 0362 47be 3489 203d 4e91 fa3c
00000130: 6eae eebd 06f3 933c b933 4ebd d990 54bd
00000140: 4072 af3b 0ed3 b93d dd2e 24be 503c 65be
00000150: e613 fa3e 53cd 4f3d 2f58 25bc d796 3ebe
00000160: 335f 15bd b8ff b93d 1448 17be 7e75 eabd
00000170: ea73 763d 96e8 0ebe 2a4b c2bd f010 493c
00000180: 4689 ed3c 41c0 263e a826 37be 94d2 1dbe
00000190: c899 08be b41f 5c3d b4f3 573d cb70 0d3e
000001a0: d31b 0fbe 69b3 7ebd 3254 c1bd 755c f2bd
000001b0: 79a8 3fbe 48b6 473d 109e 823d 9619 29bc
000001c0: a0c4 cfbb 9072 3a3d cd9e dfbc 3f1f 443d
000001d0: d9c6 17be fcbc 4fbd 462f 9b3d dc5e 99bd
000001e0: 19c8 43be e22c 14be 963f 6fbe 434f 00be
000001f0: e754 4438 ae95 fcbd 5681 bbbc e68b 143c
00000200: b888 783c 5327 983e d7b8 753d 9439 4abc
00000210: 2fed 07be fde7 e0bd 91c6 243d 9592 2a3c
00000220: 34d7 54be be9f 6dbe a726 bc3c 142c 77be
00000230: 3f06 e93c f517 21be 4757 b6bc aff5 a33d
00000240: d5a6 0f3d 4e7c 763d 6066 9cbc 827d 07be
00000250: 1c16 30bd 4777 df3c 7ebc 96bc 0477 203d
00000260: b58d 7a3c 5274 f1bc aba6 363d 748f 303e
00000270: 4c1f 083e f407 3fbe 563a ac3d c355 1f3d
00000280: a162 0abb 0e70 9dbd ebe4 44be 9422 89be
00000290: ce0a 8abd c096 0c3e a417 45bd e9fc 183e
000002a0: c647 1bbe 0574 e5bd a76e fc3d 9fdd d93d
000002b0: f537 24be 6618 ebbb 2976 7abe ddba 873d
000002c0: 7071 64bc 638c 97bc 630e 18bc 5f3b a0bc
000002d0: dbdc a43d 2e9d 903d ac90 393d 6728 7cbe
000002e0: 3286 4bbe 8511 4dbe 2f07 dabc 5702 87be
000002f0: a291 843d 47f2 64be 4e5d 64be 413b e33d

linear3.bias f4 [3]
0.016181268 -0.2912744 -0.18086447
00000000: 948e 843c eb21 95be 8934 39be
